src/si24/proyectos/Proyecto_Final/MountainCar/policy_net.pt (torch, 73062 bytes, 6 tensors)

weight f4 [128, 2]
000000 69 4c 0a bf 54 60 e6 3f 63 21 13 3e 40 19 01 3f
       -0.5402284 1.7998147 0.14368205 0.50429153
000010 3e 18 54 bd e9 61 db bf 46 ce 98 3e 24 bf 57 be
       -0.05178093 -1.7139255 0.29844874 -0.21069008
000020 73 5f c5 3e 55 40 b2 3e 51 14 57 3c 90 dc c4 bf
       0.38549384 0.34814706 0.013127402 -1.537981
000030 e7 d1 95 be ff c1 83 40 e5 9b 06 bf b5 cc 3f c0
       -0.29261705 4.117431 -0.52581626 -2.9968693
000040 dc 98 ba 3e aa 19 8d 3e 1c 6a 51 be 2d 3d f4 be
       0.36444747 0.27558643 -0.20450634 -0.47702923
000050 a6 70 59 be e9 5e 10 bf fc 40 e2 bf fd f6 6a c0
       -0.21234378 -0.5639482 -1.7676082 -3.671325
000060 e8 12 ae be 52 2d 52 c0 a2 4c 7f bd a8 c1 1b be
       -0.339988 -3.2840161 -0.062328942 -0.15210593
000070 2a 8c 8f 3e 5f 97 5a c0 52 76 f6 bc da ae 25 c0
       0.28036624 -3.415489 -0.030085716 -2.588797
000080 2e aa fd be 91 0f df bf f7 d5 af 3e cc 48 fa be
       -0.495439 -1.7426625 0.3434293 -0.48883665
000090 f2 82 d8 be 70 9f e2 bf 57 27 26 bf bf 02 04 c0
       -0.42287403 -1.7704906 -0.6490378 -2.0626676
0000a0 a9 78 82 be e1 30 0d c0 b2 3a 3f 3e d2 7d 16 c0
       -0.2548268 -2.2061083 0.18674734 -2.3514295
0000b0 cc ec 14 3e ac 1f e2 bf c2 3e 55 3e 44 0d 23 c0
       0.14543456 -1.7665915 0.20824721 -2.5476847
0000c0 74 99 26 bf c6 aa 2c c0 23 b6 c8 bd b5 d0 0a bf
       -0.650779 -2.6979232 -0.09800365 -0.5422471
0000d0 6c 3a bd bd a2 76 c3 bf ea 01 af 3e 8e 75 c9 3e
       -0.09239659 -1.5270579 0.34181148 0.393475
0000e0 ec b6 6c be 9c 14 df bf 77 71 ca 3e 03 32 b1 be
       -0.23116654 -1.7428164 0.39539692 -0.34608468
0000f0 32 b5 83 be dd 46 78 bd ab 0d 61 3d 6a 23 66 3e
       -0.2572418 -0.060614455 0.054944675 0.22474447
000100 ea 7b 00 3e bd 17 31 3e 53 7f 41 bd 7d 20 f5 bf
       0.1254727 0.17294212 -0.047240566 -1.915054
000110 1f 8f ce bd f4 23 fe be d2 da d0 bc 66 63 0f c0
       -0.10085892 -0.49636805 -0.025494967 -2.2404418
000120 fc 6a 26 3d 8c 5f e5 c0 2a 52 86 be cd c1 cb bc
       0.040629372 -7.1679134 -0.2623456 -0.024872685
000130 08 08 ee be 51 98 19 c0 cf 11 8a bf 6c aa 17 c0
       -0.46490502 -2.3999217 -1.0786685 -2.3697767
000140 33 6c a7 be 6b 9b 3d c0 e2 b1 a0 3d e3 3d 73 3e
       -0.32699737 -2.962611 0.078464285 0.23754077
000150 f5 4f a7 3e 79 ce a7 be 23 59 56 3e b8 6f b1 bf
       0.3267819 -0.32774714 0.2093244 -1.3862219
000160 49 ae 7d 3e d0 f7 03 c0 b5 cc c2 3e 8e 01 c3 be
       0.24773516 -2.0620003 0.38046804 -0.38087124
000170 53 be f8 be 1d 70 dc 3d 5c 9a 26 3e ea 38 03 c0
       -0.48582706 0.107635714 0.16269821 -2.0503488
000180 b7 f1 12 3c a0 36 d9 3d 13 be 70 3e 03 91 88 3e
       0.008968762 0.10606122 0.23510008 0.26673135
000190 49 48 46 be 05 11 0a c0 6c 4a 53 bd ef 23 ec 3e
       -0.19363512 -2.1572888 -0.051584646 0.46121165
0001a0 5b 7f bd 3e bf 75 b9 be cd 84 66 3e ea d8 9e 3d
       0.37011227 -0.36222646 0.22511597 0.07756217
0001b0 9b fc 78 3e 90 1f 17 be 00 cb c1 bc 00 99 9b be
       0.24315111 -0.14758134 -0.023656368 -0.30390167
0001c0 87 27 63 bf 20 fd 48 c0 f5 53 64 be ed 7f 01 c0
       -0.8873219 -3.1404495 -0.22297652 -2.023433
0001d0 2d 76 ce be 00 d6 3e c0 ff 0a 7a be 48 67 53 c0
       -0.40324536 -2.9818115 -0.24418257 -3.3031788
0001e0 bb c3 81 3d d4 70 e9 3d 94 72 90 be 3a 34 63 c0
       0.06336161 0.113984734 -0.28212416 -3.5500627
0001f0 f8 ca 60 3e 73 16 c6 c0 5c eb 94 3d 62 11 b3 40
       0.21952426 -6.1902404 0.07271454 5.595872
000200 08 1d 09 3d bc 58 b3 be 5b bc 2a 3e 8c d4 da bf
       0.033474952 -0.35028636 0.16673414 -1.7096114
000210 7d 63 55 bd 73 1c d4 bd f0 09 c8 3e 28 86 dd be
       -0.052096833 -0.10356989 0.39070082 -0.43266416
000220 1b 15 8e 3e 05 ed 2c 3e e9 0d 8a 3e ec 46 8f be
       0.27750477 0.16887291 0.26963738 -0.27983797
000230 0e 7a f5 bd 82 1c 1b c0 cf 24 53 bf 5d d3 98 c0
       -0.11986171 -2.423615 -0.8247804 -4.775801
000240 f7 10 ab be d2 c4 08 c0 e9 52 cd 3d 8f 20 12 c0
       -0.3341138 -2.137013 0.100255795 -2.2832372
000250 28 09 92 3d 16 b6 02 3f db 1d 98 bf d7 33 18 c1
       0.07130653 0.5105909 -1.1884111 -9.512656
000260 f8 05 50 be 5b b3 e9 bf 7d 4c 91 3e 4a b3 e5 3e
       -0.20314777 -1.825786 0.28378668 0.4486335
000270 72 48 d7 bd 1f b7 14 c0 fe 2f 3b bf d6 44 04 c0
       -0.10511865 -2.3236768 -0.73120105 -2.0667014
000280 08 f1 39 3d 78 b9 ca 3e ad 5e 34 bd 6f a0 68 be
       0.04539588 0.39594626 -0.044035602 -0.2271745
000290 ee f6 c9 3c f6 38 a2 c0 09 f4 62 bf 2b 35 53 3e
       0.024653878 -5.0694532 -0.8865362 0.2062575
0002a0 9e c6 a6 bf 84 00 c9 bf 09 c1 b0 3e 06 93 0d 3e
       -1.3029363 -1.5703282 0.34522274 0.13825616
0002b0 cc 79 39 3e d8 cb 9c 3d 2f 11 95 3d 4f ea bf bf
       0.18112868 0.076560676 0.07278668 -1.499338
0002c0 77 5e e1 be 8f 7e 05 c0 14 f6 ed 3e de 00 0e bf
       -0.44017383 -2.0858495 0.46476805 -0.55470073
0002d0 5d 9d 8e be 2d 24 19 40 22 f3 cd 3d 9a e1 16 c0
       -0.27854434 2.392833 0.100561395 -2.3575196
0002e0 5c 0c a1 be e8 ea b3 be 90 60 97 bf 9a ba df bf
       -0.31454742 -0.35140157 -1.1826344 -1.7478821
0002f0 a2 b9 fe 3e 94 60 11 3e 29 c8 6e bd ea 86 a9 40
       0.49751002 0.14196998 -0.058296356 5.297719
000300 26 67 1d be b8 38 3c 3d 15 3b 16 3f e0 38 75 c0
       -0.1537138 0.04595253 0.586839 -3.8315964
000310 46 ea 13 3f 24 9b 77 bf af c6 ed be c4 df 33 c0
       0.5777935 -0.967211 -0.46440646 -2.8105326
000320 82 c2 1b bf e2 4b ea bf c4 7b 92 3e 46 9f 96 be
       -0.6084367 -1.8304408 0.2861005 -0.2941839
000330 4b 26 69 be 79 30 c1 c0 81 64 1a 3d b9 62 d4 c0
       -0.22768514 -6.037167 0.037693504 -6.637051
000340 97 21 ca 3e 36 f7 c3 3e 2f 7a 2c bf 8e 9e 17 c0
       0.39478752 0.38274544 -0.6737394 -2.3690524
000350 1d 7f 7b 3d 99 88 38 bf dc 39 37 3e 16 5e 11 c0
       0.06140052 -0.7208343 0.17893165 -2.2713675
000360 60 d1 98 be 18 14 5a c0 bd 32 34 bf 1c 09 0e c0
       -0.2984724 -3.4074764 -0.7038992 -2.219306
000370 54 59 c0 bd ec f6 bb 3e 2f 59 eb 3e 15 ad 9b bc
       -0.09392038 0.36711824 0.4596648 -0.01900343
000380 1f 90 8e bd 0d 27 bc 3e c9 02 f4 3e 25 d6 76 be
       -0.06961083 0.36748543 0.47658375 -0.24105127
000390 cb 60 4a 3d c2 76 90 c0 f9 21 f9 bd 7c c1 c9 3d
       0.049408715 -4.514497 -0.12164683 0.09851357
0003a0 c2 66 30 be 5e db 21 c0 4d 71 86 3e 2d 56 82 bd
       -0.17226699 -2.529014 0.26258317 -0.06364093
0003b0 24 49 18 be 94 16 8e 3e de 51 17 3e 85 dc 0e c0
       -0.14871651 0.277516 0.14777324 -2.2322094
0003c0 5b 49 d1 bd 2c d8 27 bf 05 10 6e be e7 c7 64 c0
       -0.102190696 -0.6556423 -0.23248298 -3.574701
0003d0 4e 95 34 be 4f 75 ec be de 5f 0b bf 1a e6 16 c0
       -0.1763508 -0.4618325 -0.54443157 -2.3577943
0003e0 61 c7 82 3e 76 a0 df be 48 9c 8f bf 5f 3f dd c0
       0.2554274 -0.4367711 -1.1219568 -6.9139857
0003f0 30 1e 0f be 73 fa 81 bc a5 57 57 be 1f 34 24 c0
       -0.1397636 -0.015866494 -0.21029527 -2.5656812

bias f4 [128]
000000 80 6c 22 be d4 89 01 bf 4a 52 94 3e 6f 0c bb be
       -0.15861702 -0.50600934 0.28969032 -0.36532924
000010 b1 51 a7 be 25 50 e3 3e 9a 6d 34 be 00 f2 7a 3e
       -0.32679513 0.44397083 -0.17619935 0.24506378
000020 51 0f c3 be 20 b2 ac be 48 dc 48 3f 9f a4 7e be
       -0.38097623 -0.3372965 0.7846112 -0.24867485
000030 6b b4 2c 3e 41 98 f6 be 50 b2 4c 3e 08 23 34 3e
       0.16865699 -0.48163036 0.19989896 0.17591488
000040 7b 27 ec 3e 29 ee 6f be fa ea b2 bd 39 ab 33 bd
       0.4612387 -0.23430695 -0.087362245 -0.043864463
000050 5c 7c 84 3e 43 8f 14 3f 82 38 cc 3e 5e d2 b6 3e
       0.2587613 0.580311 0.39886862 0.35707372
000060 db dc f7 3e 4d 1e 1e 3f 02 e3 26 3f 61 6c d1 be
       0.48410687 0.61764985 0.65190136 -0.40903
000070 58 e9 f0 3e 6b 50 f7 be 26 7a c8 be e9 0d 6f be
       0.47053027 -0.48303542 -0.39155692 -0.2334515
000080 23 16 9e bd 78 a1 da 3e ed ef 25 be 01 ff b8 3e
       -0.07719066 0.42701316 -0.16204806 0.36132053
000090 bd c9 a2 3e f6 90 a6 be 40 57 4f 3e d9 e8 47 bf
       0.3179454 -0.3253247 0.20248127 -0.7808967
0000a0 63 ca 22 3e ed 21 d1 be 80 f3 01 bf e7 e8 38 3f
       0.15897517 -0.40846196 -0.50762177 0.7223038
0000b0 9d 88 00 3f 31 88 64 be 6c ff 3f 3f 08 d7 e1 3e
       0.50208455 -0.22317578 0.7499912 0.44109368
0000c0 ed d9 0a be 09 0a 2d be 7b f5 97 3e a8 7e b0 bd
       -0.13559695 -0.1689836 0.29679474 -0.08617908
0000d0 36 c5 8b be e8 1a 78 be 52 0e cf be 72 96 cc be
       -0.27298898 -0.24229014 -0.40440613 -0.3995853
0000e0 00 54 c6 3e 76 5f 00 3f f0 2a 42 3e 73 f4 0e 3e
       0.38735962 0.5014566 0.18961692 0.13960437
0000f0 3f 27 88 be c8 fd 1e 3e 3b 37 01 3f f9 fb 55 bd
       -0.26592442 0.15526497 0.504749 -0.052242253
000100 02 8f ce bc 6b f1 07 3f d3 f5 f0 be 61 5c 88 be
       -0.025214676 0.5310275 -0.4706255 -0.2663298
000110 f2 63 a8 be 15 b1 1f be d6 49 86 3e ad 4a 92 be
       -0.32888752 -0.15594895 0.26228207 -0.28572598
000120 a0 64 67 bd 70 4d da 3e 04 d1 03 bf c9 ab 4f 3e
       -0.056492448 0.42637205 -0.5149081 0.20280375
000130 2d 57 f8 3e 18 db fd be 90 82 c1 3e 0c 13 d5 3d
       0.4850401 -0.49581218 0.37794924 0.104040235
000140 4c e7 b0 be ef 7c c8 be 8d f2 c7 bc 07 36 b5 be
       -0.34551466 -0.39157817 -0.02440765 -0.35392782
000150 c8 85 22 bf 42 6b 41 be d5 68 f0 be d9 53 c3 3e
       -0.63485384 -0.18888572 -0.4695498 0.38149908
000160 72 25 9c bd 4b ca 44 3f c2 1e 55 3e da 43 ce 3e
       -0.076243296 0.76871175 0.20812514 0.40286142
000170 19 31 1f 3f 90 cb e9 be 68 b6 b4 be d7 01 a5 bd
       0.6218429 -0.45663118 -0.35295415 -0.080569915
000180 14 28 7b be 7f f6 a8 3e 8e 92 35 3f 91 26 57 3e
       -0.24527007 0.33000562 0.7092675 0.21010806
000190 3d 93 d3 3e e9 4a ed be fc 18 46 be a2 79 0c 3d
       0.4132327 -0.46346214 -0.19345468 0.034295686
0001a0 38 e1 69 3f 32 14 8b 3d a9 ea 45 3f 69 a9 ee 3e
       0.9135928 0.06790961 0.7731119 0.46613625
0001b0 d5 e9 25 3e 25 2f b8 3d 86 47 f7 be 51 e6 8b be
       0.16202481 0.08993367 -0.48296756 -0.27324155
0001c0 f2 3d f9 bd 99 d0 9c be e0 37 99 3e a9 f0 1c be
       -0.12170018 -0.30627897 0.29925442 -0.1532618
0001d0 8f 65 f2 3e 4e 7f 08 be 6e 07 ff be 86 90 0b 3f
       0.47343108 -0.13329813 -0.49810356 0.545174
0001e0 a4 ec 2c 3f a2 85 1a 3e 25 db 78 be c8 ac e2 3e
       0.67548585 0.1509004 -0.24302347 0.44272447
0001f0 28 27 3f 3f 33 b3 ee bd 75 69 6e be b2 19 2b 3e
       0.7466912 -0.11655273 -0.23282416 0.1670902

weight f4 [128, 128]
000000 f6 e2 e5 bf a5 fc 83 bd 05 5a 19 3e c6 02 0a 3d
       -1.7959888 -0.064446725 0.14975746 0.03369405
000010 5f 5d 49 bd 68 95 00 3e b4 64 c9 bf 4f a5 88 3c
       -0.04916131 0.12556994 -1.5733857 0.016680388
000020 e3 3a 10 bd 27 58 0a 3d 3c b7 9d 3b c7 98 c9 3d
       -0.03521241 0.033775475 0.004813103 0.09843593
000030 cf 32 6d 3e 7b df 50 3d 6f 0b 87 bf 17 ff 53 3e
       0.23163913 0.050994378 -1.0550364 0.20702778
000040 67 0d ee 3d 8b 17 20 3d 50 59 d0 3d 97 27 85 3c
       0.1162365 0.039084952 0.10173285 0.01625423
000050 83 65 ab 3d b4 87 00 3f dd 88 ac 3e 85 80 95 3e
       0.08368971 0.50207067 0.33698168 0.29199615
000060 1d 43 67 3d 8f 4f d1 3d c2 0b e9 3d 44 93 52 3d
       0.05646049 0.10220253 0.11379196 0.051409975
000070 a5 4d ae 3d 25 dc 99 3c 67 58 57 bd e0 e2 67 bd
       0.08510903 0.01878173 -0.05257454 -0.05661285
000080 19 a9 7a bc 44 8f c2 3e 72 85 7f bb 45 49 33 3e
       -0.015299105 0.37999928 -0.0038989452 0.17508419
000090 83 5e 27 bf ca 86 30 bd 38 3e 3a 3e ec fa 19 be
       -0.6537859 -0.043097295 0.18187797 -0.15037125
0000a0 29 f5 1f 3e b8 ae 32 3c 20 e3 8c 3c 2e 7b c4 3d
       0.15620865 0.010905914 0.017198145 0.09593807
0000b0 e4 a2 03 3f 13 b8 61 bd 03 9c 63 bc 65 5f 2a 3e
       0.51420426 -0.055107187 -0.013892177 0.16637953
0000c0 e3 a3 87 bb d2 7f fd 3c 16 1a 28 3e cd 38 22 bc
       -0.00413941 0.030944739 0.16416201 -0.009901238
0000d0 94 f6 08 3c 2d ea 08 3d e3 04 2f 3d 94 14 e8 bc
       0.00835957 0.033426452 0.04272927 -0.028330125
0000e0 3a 5c 4f 3e 6a da 89 3d 00 d1 02 3e 42 de b3 3e
       0.20250025 0.06731112 0.1277504 0.35130507
0000f0 f6 90 9b bc 3a 3b 52 3e 51 2e 9d bf e4 9e 18 c0
       -0.018990021 0.20530406 -1.227976 -2.384698
000100 1d 2d b4 3c c5 70 85 3d eb 5e 50 bc 70 07 d2 3c
       0.021994168 0.0651565 -0.012717943 0.025638312
000110 cb 28 5e 3d 3e 42 25 bd 2a 48 00 3e 5a 97 d2 bc
       0.054238122 -0.040346377 0.12527528 -0.025706936
000120 b5 b1 d0 3d 1c 4e 07 3f 8d 62 15 3d 7f e5 81 bc
       0.10190145 0.5285356 0.03647094 -0.015856503
000130 d6 04 8d 3d 83 ac b9 bc cb 9f cc 3d f5 00 08 bd
       0.06885688 -0.022665268 0.099914156 -0.033204038
000140 55 02 9d 3b af a1 5f 3c 9f 21 6a bf 94 07 a8 bd
       0.0047915378 0.013649388 -0.9145755 -0.082045704
000150 b0 6d b4 bc 8e 30 98 bc 9a ea de 3c 1d 77 ea 3e
       -0.02202496 -0.01857784 0.027211476 0.45794
000160 80 e7 28 3d 20 e5 db 3d 10 45 e8 bd 6a 04 50 3e
       0.0412364 0.107370615 -0.113412976 0.20314184
000170 46 83 7a 3d c5 44 95 bc 03 22 f7 bc 05 02 de bf
       0.06116035 -0.018221268 -0.030167585 -1.7344366
000180 90 4d 32 bd ac e6 7a bf 0e e4 18 3e b5 75 14 3e
       -0.043531 -0.9800823 0.14930746 0.14498027
000190 4d c4 bc 3c f9 7a 19 ba 31 82 d3 bc 10 7c 84 be
       0.023042822 -0.0005854811 -0.025818916 -0.25875902
0001a0 09 a2 bf 3d e7 05 90 3d 3a 72 8e 3d 9f ec 8e 3e
       0.09357078 0.07032376 0.06955381 0.27914903
0001b0 98 21 77 3e a9 ae 1c 3d 09 0c 6f 3d 67 22 13 bd
       0.24133909 0.038252506 0.058361087 -0.03592148
0001c0 fe 7a 8f 3c 5f c1 dd bc a7 d9 41 bf 6f b4 58 bd
       0.017514702 -0.027069746 -0.75722736 -0.05290645
0001d0 36 f3 ea 3d c0 39 7e bd 1b c2 60 bd ac 94 10 3f
       0.1147217 -0.062066793 -0.054872613 0.56476855
0001e0 ea 56 d8 3d 19 26 c2 3e 91 fa 02 3d be 39 fa 3d
       0.105634525 0.3791969 0.03197724 0.12218045
0001f0 06 b3 29 3d d3 e1 16 bd f9 6f 64 3d d7 9c 2e 3e
       0.041430496 -0.036836457 0.055770848 0.17052017
000200 2c 72 09 3c 80 40 c4 bc b9 76 08 bd 6d c5 fb 3c
       0.008389037 -0.023956537 -0.033316348 0.030733788
000210 f6 4f 80 3d f6 db 5a bc 96 d6 89 3c 52 97 8c bb
       0.06265251 -0.013358107 0.016825955 -0.0042904997
000220 c7 09 31 3d a9 e2 72 bd 40 6f a5 3c af 50 18 3d
       0.043222215 -0.05929819 0.02019465 0.03718632
000230 9d e6 0c 3d 92 83 29 3d 47 ed 65 bc da 68 05 3d
       0.034399617 0.04138524 -0.014033622 0.032570697
000240 16 0e a0 3c 97 35 1e 3d 28 41 82 3c d5 14 a8 3c
       0.019537967 0.038625326 0.01590021 0.020517746
000250 da a2 ba 3c c2 01 7f bd c5 28 16 3b 18 2b 91 3c
       0.022782732 -0.062257536 0.0022912484 0.017720744
000260 ab b6 df bc 9c bd 5c 3c e1 fd 3f 3b 77 4c 83 bd
       -0.027308783 0.013472941 0.002929561 -0.06411069
000270 41 a8 79 bd 6a 83 93 bc 42 2e c5 bc 55 4d f8 3c
       -0.060951475 -0.018006999 -0.024069909 0.030310312
000280 f9 48 44 bc 30 76 b9 3b bd 6d 3c 3d 69 af 1d bd
       -0.011980289 0.005659841 0.046003092 -0.038497362
000290 cd 95 1c 3d 4c be 2d bd cd 92 a3 bc 64 6e d6 bc
       0.0382288 -0.04241781 -0.019967461 -0.026175685
0002a0 a7 7d 29 bd 6c 69 81 bd ef ac d1 bc c7 8a 6f bd
       -0.041379597 -0.06318936 -0.025595156 -0.058481958
0002b0 2d fc ec bc ac c1 cf bb 67 60 28 3d d4 6b 0b bd
       -0.02892884 -0.006340226 0.04110756 -0.03403838
0002c0 de 68 40 3d 47 81 b9 3c f4 8a e7 bc 41 32 0c 3d
       0.04697501 0.022644652 -0.0282645 0.034227613
0002d0 65 7e 5e 3d ed d1 4a bd 12 cf fd 3c d2 c6 23 3c
       0.054319758 -0.049516607 0.030982528 0.009996133
0002e0 e6 34 2b 3b f9 fd 3a bd 53 08 51 bc 5e b4 14 3d
       0.002612406 -0.045652363 -0.012758332 0.036304824
0002f0 96 b7 25 bc e4 58 4c 3b 08 6c 29 3c 00 87 4e 3d
       -0.010114571 0.0031180913 0.010340698 0.050421715
000300 c1 a2 12 3d 7e f6 b8 bc f9 29 23 bd c0 e9 0b bd
       0.035799745 -0.022578474 -0.03983495 -0.03415847
000310 4d 18 64 3d d0 a2 d6 3c be 96 2b bd 53 90 22 bb
       0.055687238 0.026200682 -0.041891806 -0.0024805262
000320 df bc 76 3b 2b 07 c7 bc f5 c7 8e bb b8 74 06 bd
       0.0037649197 -0.02429541 -0.004357333 -0.032826155
000330 03 93 bc bc 0c 4f 0f bd 05 f4 00 bd 8d 36 2d 3c
       -0.02301932 -0.034987494 -0.031482715 0.010572088
000340 db 78 49 3d 26 ae 82 bd 3a 0c 7b 3d ce 0d 67 3d
       0.049187522 -0.063808724 0.061290957 0.05640965
000350 79 46 16 bd 19 7f 56 3d df f3 31 3d 90 2e 32 bd
       -0.0366883 0.052367304 0.043445464 -0.043501437
000360 5a e4 2b bd bc bf b3 bc 38 04 d0 3b 46 d5 4c 3d
       -0.04196582 -0.021942012 0.006348159 0.05000808
000370 f8 93 3d 3d cd b0 6f 3d c5 66 8a 3c ab 04 6c 3d
       0.046283692 0.05851822 0.016894707 0.05762164
000380 25 2f 24 bd 93 f2 b4 bc c3 6e 64 bc 94 e3 57 bd
       -0.040084023 -0.022088325 -0.013942423 -0.05270727
000390 d2 57 0a bd 38 28 0f 3d 60 95 a3 bc 49 32 21 bc
       -0.03377516 0.034950465 -0.019968688 -0.009838649
0003a0 3e 49 30 bc 1d fe 75 3d 75 e5 83 3c 03 1c e4 bc
       -0.01075965 0.060056794 0.016100625 -0.027845388
0003b0 07 9d 02 bd 0f 0d 0c bc f8 ba 68 bd a3 29 46 bc
       -0.031888034 -0.008548035 -0.056818932 -0.012094888
0003c0 fe 4d 1b bd 23 e3 33 bd b1 f9 b6 bc de e4 21 3d
       -0.037916176 -0.043917786 -0.022335859 0.039524905
0003d0 ba fb c9 3c c4 96 51 ba 78 2d 9e 3c 14 3c 90 3c
       0.024656165 -0.0007995183 0.01930879 0.017606772
0003e0 79 00 99 bc eb 7b e4 3c 15 f2 77 3c 0e 53 64 3a
       -0.018676983 0.02789112 0.0151334 0.0008709886
0003f0 45 04 16 3c 34 e5 04 3d 2c 24 76 3d b1 9b 21 bd
       0.009156291 0.032445148 0.06009309 -0.03945512

bias f4 [128]
000000 0b d6 d5 bc b9 f6 60 bd b6 7e 2f 3c 73 1a 5f 3d
       -0.02610304 -0.054922793 0.010711363 0.054468583
000010 43 2b 1d bc 9c d9 5e bd e7 25 99 bd c7 8c b3 3d
       -0.009592834 -0.054406747 -0.074779324 0.087670855
000020 59 7f 07 bd 4c 18 a0 3b 49 ba 10 3d 2c 4b 1d bd
       -0.033080433 0.004885709 0.035333905 -0.038401768
000030 c0 ba 46 3d 3e 59 86 bc 45 b6 42 3d ff 06 2a 3d
       0.048517942 -0.016399976 0.047537107 0.04151058
000040 76 a2 8e 3c a2 7a 7a 3d 60 db 67 3d 38 fa af bc
       0.017411452 0.061152108 0.056605697 -0.021481618
000050 78 23 24 3d 08 fd 17 bd c2 65 5d 3d 4d 25 53 ba
       0.040072888 -0.037106544 0.054052122 -0.00080545695
000060 da 85 a3 3c 56 23 8d bd 34 88 d4 bc e9 17 47 3e
       0.019961286 -0.068915054 -0.025943853 0.19442715
000070 65 92 2a 3f 89 88 47 3d 5b 30 02 be c3 67 87 bd
       0.6662963 0.048714194 -0.12713759 -0.06611588
000080 30 5d dd 3d ea 56 98 bc 25 4e 67 bd 89 64 cd 3d
       0.1080879 -0.018596131 -0.05647101 0.10028941
000090 61 3e 46 bd 9f 76 64 3d f6 42 51 3c 0e 84 d4 3d
       -0.048399333 0.05577719 0.012772312 0.1037675
0000a0 14 a1 3a 3d 14 7f 8c bc 8c 25 3c 3d fd 55 23 bd
       0.045563772 -0.01715044 0.045934245 -0.039876927
0000b0 86 7d 32 3c c0 bd 52 3d d7 69 02 3d b8 72 dd bc
       0.010894185 0.05145049 0.031839218 -0.027032241
0000c0 33 e5 da bd e8 63 27 bd 87 13 45 3e c9 43 9c 3d
       -0.106882475 -0.040866762 0.1924573 0.076301165
0000d0 eb c9 4e 3d 1b 6f 3b 3d 3a 1e 0d 3d cb 3d 04 bd
       0.050485533 0.045760255 0.034452654 -0.032285493
0000e0 e8 6e 3a bc 90 b5 74 3d 30 6b e1 bc f3 de 2d bc
       -0.011378981 0.059743464 -0.027516931 -0.010612237
0000f0 0a cf 64 3d 4f 44 c6 3e f2 60 81 3d 67 12 2f bd
       0.05586151 0.3872399 0.06317319 -0.04274216
000100 a8 4e 00 3d 13 89 25 be b6 f6 7c bd 87 3f e0 3e
       0.031325012 -0.16165571 -0.06175872 0.43798468
000110 21 7b 32 3d f7 64 c5 bb 72 23 0c be ef 5a ef bc
       0.043574456 -0.006023999 -0.13685396 -0.029218165
000120 06 ae 4c 3c 0d d4 9f bc f8 ac 1f bd f0 02 1e bd
       0.012492662 -0.019510293 -0.038983315 -0.03857702
000130 d6 82 a6 3d 3a f4 06 3c 69 6f 99 3d d6 95 03 bc
       0.08130424 0.008236939 0.07491953 -0.008031329
000140 7e 67 af 3d 70 35 61 bd 71 0b 8c bb 99 62 1b bd
       0.085646614 -0.054982603 -0.004273825 -0.037935827
000150 3d 26 02 be 83 e4 da bb 41 c6 58 3e 6c 39 16 bd
       -0.12709899 -0.0066800728 0.21169378 -0.036675856
000160 61 17 6b bd 78 74 22 be e0 a5 1c bd a0 c4 a3 3e
       -0.057395343 -0.15864742 -0.03824413 0.3198595
000170 5f 48 e1 ba 18 10 56 bd 24 2b 52 3d 3b e5 06 bd
       -0.0017187706 -0.052261442 0.051310673 -0.032933455
000180 9f d0 40 3e f9 ba 86 bd 36 cb d0 bc ec f9 c5 3e
       0.18829583 -0.06578631 -0.025487524 0.38667238
000190 3d 22 8d bd 09 d6 e9 bc 6b 4b 07 bc a9 00 65 bd
       -0.06891296 -0.028544443 -0.008257727 -0.055908833
0001a0 6e 8c 16 3e 5c db d9 3d ea 39 8e b9 59 1e 57 3d
       0.14702007 0.106375426 -0.000271275 0.052519176
0001b0 b0 b5 44 bb c6 d8 8c 3d a1 61 c8 bc 75 d7 99 bc
       -0.003001552 0.06877284 -0.024460616 -0.018779496
0001c0 12 6a a9 3c 2a 2e 4d bd 02 48 7a 3d cb 74 8f 3d
       0.020680461 -0.050092854 0.06110383 0.07004698
0001d0 a9 88 1f bc 29 b3 04 3e 17 d3 cf 3d 3e e4 c3 3c
       -0.009737172 0.12958969 0.10147684 0.023912545
0001e0 d0 7a 2c 3b 62 94 35 bd 15 fc 63 3d 92 fe 2a bd
       0.002631832 -0.044330962 0.055660326 -0.041746683
0001f0 df 88 eb bd 01 3c 64 3d ce 68 6c 3d a7 ce 6d bb
       -0.115007155 0.055721287 0.057717137 -0.0036286504

weight f4 [3, 128]
000000 0d cc 6f be 54 db c0 bc 39 12 53 3d 96 d7 15 bf
       -0.23417683 -0.023542084 0.05153105 -0.58532083
000010 1b 47 02 bf 63 0f 4f bf 1c ef 06 bf d7 07 06 bf
       -0.5088975 -0.80882853 -0.527086 -0.5235571
000020 b7 f6 aa 3c 10 88 00 bf 50 5e 1e 3d b6 77 cd be
       0.020869596 -0.50207615 0.038664162 -0.40130395
000030 52 ea 38 3d 5d ef e3 bc a4 22 1d 3d e9 5b 36 3d
       0.04514534 -0.027824098 0.038363114 0.044521246
000040 4b 4a 5d bd 50 c0 e3 be 72 56 38 3f 54 39 3b 3c
       -0.05402593 -0.4448266 0.72006905 0.011427242
000050 4c 66 29 bd 34 f0 bf bc b8 63 62 3d ee 29 fd 3c
       -0.041357324 -0.023429967 0.05527088 0.030903783
000060 3c b4 e5 3c 40 8d 3a 3c 0d 5f 66 3d ed 86 3f 40
       0.028040044 0.011386216 0.05624299 2.9926102
000070 e9 b7 25 40 55 86 1a bf 17 5b 03 3f b5 80 52 bf
       2.58935 -0.60361224 0.5131087 -0.8222764
000080 fb 2f 12 bf 87 5d d3 bc ef 12 df 3b 82 7f 17 bf
       -0.5710446 -0.025801433 0.006807677 -0.59178936
000090 22 29 84 3d 63 ef e0 3c 7d ef d8 bf 9a b6 1c 3f
       0.06453158 0.027457898 -1.6948086 0.6121613
0000a0 4f 77 51 bd 0c 5f 0d bd 3e 63 06 bd 10 53 3f 3c
       -0.051139172 -0.034514472 -0.03280949 0.0116775185
0000b0 d0 67 8f bc a1 8a 4b bc d0 f7 59 bd ca fe 82 be
       -0.017505556 -0.012423188 -0.053214848 -0.25585014
0000c0 f4 f1 0c 3f 56 9f f5 bc 74 b3 01 bf 9c 93 8a be
       0.5505669 -0.029983204 -0.5066445 -0.27065742
0000d0 8f 39 90 be ef 53 f4 bc 18 8f fe be 72 38 fd be
       -0.28168914 -0.029825179 -0.49718547 -0.49457127
0000e0 91 e4 63 3c 68 b1 25 3d 8c 83 3b 40 d4 c2 69 3f
       0.013909475 0.04045239 2.929904 0.9131291
0000f0 f4 4e 50 3d bc e1 b9 3f 1e 71 96 be 4f 63 8d bc
       0.050856546 1.4522014 -0.29383177 -0.017259268
000100 21 d2 6d 3d 71 95 91 be 48 c4 77 3d 76 12 13 bf
       0.058061723 -0.28434327 0.060489923 -0.57450044
000110 c0 e6 49 bc a4 20 67 bd 84 c2 04 c0 78 59 e3 3c
       -0.0123230815 -0.056427613 -2.0743723 0.027752623
000120 e4 9b 54 3d f4 95 0b bf da c5 48 3d a8 ae 7d bd
       0.05190648 -0.54525685 0.04901681 -0.061934143
000130 02 38 ca be c5 9e b6 bc aa c9 72 be f8 21 2c bd
       -0.39495856 -0.022292504 -0.23709741 -0.042024583
000140 11 1f e2 be c5 bd 4c bf 78 7b 54 3d 35 33 78 bc
       -0.44164327 -0.79977065 0.05187556 -0.015148927
000150 00 14 8a 3f 1d 5f 0e 3c 91 84 eb be 33 82 fa 3c
       1.0787354 0.008689669 -0.45999578 0.030579662
000160 e3 6d ee 3c f6 08 e7 be ed 68 31 3d aa f6 4d 40
       0.029105132 -0.45124024 0.043312956 3.2181802
000170 5b f0 71 be 23 aa 76 3d be 82 20 bd 41 9e 46 bd
       -0.23626845 0.06022085 -0.039187185 -0.048490766
000180 48 61 1c bf 3b 9a 1c 3d 21 48 22 3d 05 cc a2 3f
       -0.6108594 0.038233023 0.03961957 1.2718512
000190 81 ab 72 bd 08 93 77 be 2c aa ce bc b2 d5 5f 3c
       -0.05924559 -0.24177182 -0.025227629 0.013661789
0001a0 37 e2 12 40 5e ac 53 3f a9 f3 62 bd 04 bd 64 3c
       2.295057 0.82684886 -0.055408154 0.01396108
0001b0 b8 50 55 bd f7 24 89 be 44 10 ff 3c 65 61 82 bf
       -0.052078933 -0.26786014 0.031135686 -1.0185972
0001c0 9f 79 6e 3d f2 ce 5e bc a7 2d a2 bc c8 c9 db be
       0.058221456 -0.013599144 -0.01979716 -0.42927384
0001d0 59 d5 3f bb 11 b1 dc be 11 b0 ce be d7 06 71 bd
       -0.0029271452 -0.4310384 -0.40368703 -0.058844414
0001e0 f6 00 21 bf 31 98 4e 3c fa 99 16 3c b1 62 b0 3c
       -0.6289209 0.012609527 0.009191984 0.021531435
0001f0 22 f8 52 bf 17 a4 e1 bb 81 e8 f2 be 19 b7 d6 ba
       -0.8240987 -0.006886016 -0.4744301 -0.0016381472
000200 90 15 08 bf 8b 73 74 bd 60 bb 84 bc d7 19 11 bf
       -0.531579 -0.059680503 -0.016202629 -0.56680053
000210 82 1d 02 bf 59 6a 0b bf bd 78 08 bf d4 64 1f bf
       -0.50826275 -0.5445915 -0.5330923 -0.62263227
000220 cc be 0c 3d 99 ad 13 bf ec b3 94 39 20 cb 53 bf
       0.034361646 -0.57686764 0.00028362812 -0.8273182
000230 ca 18 02 bd 65 ab 7a 3d c5 f9 5e 3b 43 92 4b bd
       -0.031761922 0.06119861 0.0034023386 -0.049700033
000240 ca f2 8f 3d b7 9a 11 bf 62 86 14 3f ff 76 4f bd
       0.0702873 -0.568767 0.5801755 -0.050650593
000250 54 48 4b bd 47 d3 55 bc 0c 11 7e bd 37 1c dc 3c
       -0.049629524 -0.013050861 -0.062027976 0.026868923
000260 56 55 31 3d 5b 5d 15 3d 94 bb 39 bd 52 ce 22 40
       0.043294273 0.036465984 -0.045344904 2.5438428
000270 2f 4a 1f 40 97 c3 1a bf d9 72 20 3f e3 b2 08 bf
       2.4889028 -0.60454696 0.62675244 -0.5339796
000280 b2 be 2f bf d6 4e 1e 3d 0c d2 65 3c 3d c5 23 bf
       -0.6865035 0.038649403 0.01402713 -0.63972837
000290 cc ef f4 3c 96 ff dc bb 3e eb a4 bf ec ce 83 3e
       0.0298995 -0.0067443354 -1.288429 0.25743806
0002a0 0c a6 5a bd 6a 30 ca 3b 95 2e b8 ba 29 b2 32 3c
       -0.05338101 0.006170322 -0.0014051968 0.0109067345
0002b0 e7 74 51 3d ac b8 2c 3d c1 46 8a 3c a4 f6 fd be
       0.051136877 0.042168304 0.016879441 -0.49602234
0002c0 a0 9c 1b 3f b7 6e 32 3d 43 00 f5 be 5f 41 02 bf
       0.60785866 0.043562617 -0.47851762 -0.50881
0002d0 9d b9 bc be ff 61 5b bc 2f 26 6d be 24 9b c9 be
       -0.36860362 -0.013390063 -0.23159097 -0.39376175
0002e0 f4 91 98 bc 74 6c 29 3d bb e6 38 40 cf 61 63 3f
       -0.018624283 0.041363195 2.8890827 0.8882112
0002f0 9f 88 18 3d 4b cb 1a 40 f4 53 f4 be c9 a3 55 bd
       0.037239667 2.418658 -0.477203 -0.05215815
000300 ec be 56 bb 2c 46 ea be 49 fc 61 bc e9 e5 d2 be
       -0.0032767607 -0.45756662 -0.01379306 -0.41191033
000310 38 eb 46 3d ae 9a 00 3c a6 20 22 c0 b7 48 c7 bb
       0.048564166 0.0078493785 -2.5332427 -0.0060816663
000320 51 00 82 bd e4 23 0f bf 25 6f 44 bd 3a 01 ae bc
       -0.063477166 -0.5591414 -0.04795756 -0.02124082
000330 cb c0 f7 be f5 2e c7 3c 61 2e b5 be 10 e2 d9 3b
       -0.48389277 0.024314383 -0.35386947 0.006649263
000340 b0 d8 eb 3c 31 f4 39 bf 70 6e ac bc fc c5 08 3d
       0.028789848 -0.7263823 -0.021048754 0.033391938
000350 5d 63 2e 3f bb fc 88 ba 3f 90 ca be 05 b9 1d bd
       0.68120366 -0.0010451296 -0.39563176 -0.038506526
000360 e7 0b 1d bc b7 72 09 bf 62 3c 12 bc 03 e3 2e 40
       -0.009585357 -0.53690666 -0.008925529 2.7326057
000370 78 60 bc be 61 57 55 bd d3 c0 4b bd bf 94 72 bd
       -0.3679235 -0.052085284 -0.04974444 -0.059223887
000380 bc e9 33 bf 10 c5 2d 3c d3 b1 25 bd c9 74 88 3f
       -0.70278525 0.010606065 -0.04045279 1.066064
000390 f5 2a c1 3c c2 18 32 bf 43 70 1b bc 02 ad 7f 3d
       0.023580054 -0.6956903 -0.0094872145 0.062420852
0003a0 2e 7b 2f 40 8f 98 65 3f e2 14 bd 3c 28 40 4e 3d
       2.7418933 0.8968591 0.023081247 0.050354153
0003b0 13 8d 5e bc 80 7d 61 be 8b 85 07 bd 73 7f 38 bf
       -0.013583439 -0.2202053 -0.03308634 -0.7206947
0003c0 84 75 7e 3d 87 97 75 3d a6 fd 9f 3c 56 c6 d0 be
       0.06212379 0.05995896 0.019530129 -0.40776318
0003d0 f9 03 4c bd 61 d5 b7 be 0d 96 01 bf ff cf 8d bb
       -0.049808476 -0.35904983 -0.50619584 -0.0043277736
0003e0 76 36 0a bf 3c 9f 02 3d 48 28 9d bc 20 ab 0d 3d
       -0.5398935 0.03189014 -0.019184247 0.034587026
0003f0 f9 25 1f bf 09 81 77 3d 17 ad 08 bf a5 f6 46 3d
       -0.62167317 0.060425792 -0.53389114 0.048575062

bias f4 [3]
000000 2d 75 2b 3b d5 c1 f9 bc 9d 7a 84 3d
       0.0026162372 -0.030487934 0.06468699
