src/si24/proyectos/Proyecto_Final/MountainCar/target_net.pt (torch, 73062 bytes, 6 tensors)

weight f4 [128, 2]
000000 7d 72 0a bf a6 3f e7 3f f9 30 13 3e 80 26 01 3f
       -0.54080945 1.8066299 0.1437415 0.5044937
000010 a6 e2 52 bd 03 1c dc bf dd dd 98 3e bc d5 57 be
       -0.05148568 -1.7196048 0.29856768 -0.21077627
000020 b6 73 c5 3e 0f 53 b2 3e c8 08 6c 3c 02 b5 c5 bf
       0.38564843 0.34828994 0.0144063905 -1.5445864
000030 09 36 95 be 40 f9 83 40 ad 9a 06 bf 13 09 40 c0
       -0.29142788 4.124176 -0.52579767 -3.0005538
000040 6c ac ba 3e 78 28 8d 3e f0 7f 51 be 22 56 f4 be
       0.36459672 0.27569938 -0.2045896 -0.47721964
000050 31 cf 55 be 03 72 11 bf 06 4b e2 bf 62 32 6a c0
       -0.20879818 -0.56814593 -1.7679145 -3.6593251
000060 5a 72 ae be 86 52 52 c0 20 67 7f bd 04 d2 1b be
       -0.34071618 -3.2862868 -0.062354207 -0.15216833
000070 91 ee 8e 3e a8 ef 5a c0 4c 30 fd bc 94 fd 25 c0
       0.27916387 -3.4208775 -0.030906819 -2.5936022
000080 ee 93 fd be 22 d8 df bf e3 e7 af 3e 82 62 fa be
       -0.49526924 -1.7487833 0.34356603 -0.4890328
000090 4b d6 d8 be 5a 20 e3 bf 11 14 26 bf 67 2f 04 c0
       -0.42350993 -1.7744248 -0.6487437 -2.0653932
0000a0 7c d9 82 be 39 84 0d c0 5f 95 3f 3e 19 bc 16 c0
       -0.25556552 -2.2111952 0.18709324 -2.3552306
0000b0 d0 45 15 3e f9 9f e2 bf cc 8c 55 3e 6a 49 23 c0
       0.14577413 -1.770507 0.20854491 -2.5513558
0000c0 47 d1 26 bf 90 05 2d c0 13 2d c4 bd 05 52 0c bf
       -0.6516308 -2.7034645 -0.0957891 -0.5481265
0000d0 b4 5a b9 bd 74 5f c4 bf d6 13 af 3e 98 8a c9 3e
       -0.090505034 -1.534163 0.3419482 0.3936355
0000e0 57 2f 6c be 12 e0 df bf 80 86 ca 3e b7 44 b1 be
       -0.23064934 -1.7490256 0.3955574 -0.34622738
0000f0 b4 c2 83 be 93 60 78 bd 0c 25 61 3d 91 3b 66 3e
       -0.25734484 -0.060638975 0.05496697 0.2248366
000100 2a 89 00 3e 77 2a 31 3e 02 85 40 bd 15 9f f5 bf
       0.12552324 0.17301355 -0.047001846 -1.9189173
000110 28 a4 ce bd 72 3e fe be ab c6 ce bc 24 c0 0f c0
       -0.10089904 -0.49657017 -0.025241217 -2.2461023
000120 eb 40 2b 3d dd 90 e5 c0 32 60 86 be d6 d6 cb bc
       0.041809957 -7.1739335 -0.26245266 -0.024882715
000130 f5 38 ee be b8 b2 19 c0 d7 80 8a bf e9 40 17 c0
       -0.4652783 -2.4015331 -1.0820569 -2.3633368
000140 67 b4 a7 be 09 bd 3d c0 40 c2 a0 3d d3 56 73 3e
       -0.32754824 -2.9646628 0.0784955 0.2376359
000150 1a 61 a7 3e 9e df a7 be 3a 20 59 3e 02 2b b2 bf
       0.3269127 -0.32787794 0.212037 -1.3919375
000160 a4 fe 7d 3e 9c 2e 04 c0 f8 e0 c2 3e d2 15 c3 be
       0.24804169 -2.0653448 0.38062263 -0.38102585
000170 15 4a f6 be a3 e4 db 3d db 47 27 3e 81 80 03 c0
       -0.48103395 0.10736968 0.16336004 -2.0547183
000180 51 01 13 3c 38 4d d9 3d 03 d7 70 3e 0a 9f 88 3e
       0.008972482 0.106104314 0.2351952 0.26683837
000190 95 b3 46 be 41 64 0a c0 40 60 53 bd 16 3c ec 3e
       -0.19404443 -2.162369 -0.051605463 0.46139592
0001a0 e7 92 bd 3e 4f 89 b9 be f5 9c 66 3e 46 e9 9e 3d
       0.3702614 -0.3623757 0.22520812 0.07759337
0001b0 50 16 79 3e 29 2f 17 be 44 df c1 bc 5c a9 9b be
       0.24324918 -0.14764084 -0.023666032 -0.30402648
0001c0 c2 3a 63 bf ec 33 49 c0 40 be 63 be 32 ea 01 c0
       -0.8876153 -3.143794 -0.22240543 -2.0299191
0001d0 5e b7 ce be 98 00 3f c0 5f 2d 7a be af a6 53 c0
       -0.40374273 -2.9844112 -0.2443137 -3.3070486
0001e0 fb d0 81 3d fc 88 e9 3d 52 81 90 be 1e 6f 63 c0
       0.06338688 0.11403081 -0.28223664 -3.553657
0001f0 df 86 60 3e 5f 0f c6 c0 82 04 9b 3d 03 43 b3 40
       0.21926449 -6.1893764 0.07569219 5.60193
000200 10 2b 09 3d 76 6b b3 be ef e2 2b 3e a3 a5 db bf
       0.033488333 -0.35042924 0.16785787 -1.7159923
000210 50 79 55 bd 45 32 d4 bd fa 1e c8 3e c0 9c dd be
       -0.052117646 -0.10361151 0.39086133 -0.43283653
000220 e9 23 8e 3e f1 fe 2c 3e f0 1b 8a 3e ba 55 8f be
       0.27761772 0.16894127 0.2697444 -0.27995092
000230 c1 8b f6 bd b6 73 1b c0 1e c5 52 bf e8 ad 98 c0
       -0.12038375 -2.4289374 -0.82332027 -4.771229
000240 ad 90 ab be 9f 05 09 c0 dc 9f cd 3d 53 60 12 c0
       -0.33508816 -2.140968 0.100402564 -2.2871292
000250 f6 17 92 3d 56 c3 02 3f 99 5b 98 bf b5 fd 17 c1
       0.071334764 0.5107931 -1.1902953 -9.49944
000260 2b 5a 4f be 97 7c ea bf 4b 5b 91 3e 72 cb e5 3e
       -0.2024924 -1.8319272 0.28389964 0.4488178
000270 4a 74 d7 bd 17 18 15 c0 e8 ac 3a bf e2 40 04 c0
       -0.10520227 -2.3295953 -0.72920084 -2.0664601
000280 8d 04 3a 3d 81 ce ca 3e 67 71 34 bd 97 b8 68 be
       0.045414496 0.39610675 -0.04405346 -0.22726665
000290 a4 8c d0 3c d6 41 a2 c0 60 dc 62 bf 65 92 5f 3e
       0.025457688 -5.0705366 -0.88617516 0.21833189
0002a0 e1 27 a7 bf dc 9b c6 bf 05 d3 b0 3e d4 a1 0d 3e
       -1.3059045 -1.5516315 0.34535995 0.13831264
0002b0 50 8d 39 3e 34 dc 9c 3d 6c 82 95 3d 6a 4d c0 bf
       0.18120313 0.07659188 0.073002666 -1.5023625
0002c0 05 8b e1 be eb 9a 05 c0 2c d2 ef 3e 03 42 0e bf
       -0.44051376 -2.0875804 0.46840036 -0.55569476
0002d0 7d 44 8e be 89 76 19 40 5a 3e ce 3d 4c 39 17 c0
       -0.27786627 2.3978598 0.10070486 -2.3628721
0002e0 17 17 9f be ef 49 b4 be 89 96 97 bf 39 ff dd bf
       -0.31072304 -0.35212657 -1.1842815 -1.7343513
0002f0 20 d4 fe 3e 62 6f 11 3e 06 df 62 bd a1 b9 a9 40
       0.49771214 0.14202645 -0.055388473 5.30391
000300 82 77 1d be 3e 4c 3c 3d fa cd 15 3f 80 bd 75 c0
       -0.1537762 0.045971148 0.5851742 -3.8396912
000310 96 34 14 3f c1 c9 78 bf 04 12 ee be f1 04 34 c0
       0.5789274 -0.9718285 -0.4649812 -2.8128016
000320 0c d5 1b bf 49 f1 ea bf 92 8a 92 3e e1 ae 96 be
       -0.6087196 -1.8354884 0.28621346 -0.29430297
000330 a1 70 6a be ce 08 c1 c0 12 75 18 3d 60 5d d4 c0
       -0.22894527 -6.032325 0.037221022 -6.6363983
000340 5b f4 cc 3e 14 07 c4 3e 8f 57 2c bf e2 bf 17 c0
       0.40030178 0.3828665 -0.67321104 -2.3710866
000350 1c 2b 85 3d 60 61 39 bf d8 b0 37 3e 6b a6 11 c0
       0.06502363 -0.7241421 0.17938554 -2.2757823
000360 ce bd 98 be e2 64 5a c0 2a d3 33 bf 29 f1 0d c0
       -0.2983231 -3.4124074 -0.70244086 -2.2178442
000370 98 6d c0 bd 6c 0a bc 3e 56 71 eb 3e 71 bd 9b bc
       -0.09395903 0.367267 0.45984906 -0.019011231
000380 ed 9e 8e bd 91 3a bc 3e bb 1b f4 3e db ef 76 be
       -0.069639064 0.36763433 0.47677407 -0.24114935
000390 2c 9f 47 3d 08 74 90 c0 af 3b f9 bd 86 d6 c9 3d
       0.048735783 -4.514164 -0.12169587 0.0985537
0003a0 86 6c 30 be 66 3e 22 c0 54 7f 86 3e 6d 63 82 bd
       -0.17228898 -2.5350585 0.2626902 -0.0636662
0003b0 bd 58 18 be 62 25 8e 3e ee a5 17 3e 51 16 0f c0
       -0.14877601 0.27762896 0.14809391 -2.235737
0003c0 d8 3c ca bd e0 c4 28 bf d8 09 6d be 20 2c 65 c0
       -0.09874886 -0.6592541 -0.23148286 -3.5808182
0003d0 07 a8 34 be 77 8d ec be bd 89 0b bf 8e 3a 17 c0
       -0.17642222 -0.4620168 -0.54507047 -2.362949
0003e0 37 3e 84 3e f8 7a e1 be 1e ae 8f bf 7c e5 dc c0
       0.25828716 -0.4403913 -1.1225011 -6.903013
0003f0 fe 2c 0f be b3 07 82 bc 25 39 57 be f7 63 24 c0
       -0.13982007 -0.015872812 -0.21017893 -2.5686014

bias f4 [128]
000000 d8 6f 21 be 14 97 01 bf ce 2d 94 3e f3 1f bb be
       -0.15765321 -0.5062115 0.28941196 -0.36547813
000010 d6 62 a7 be bd 3f e3 3e 83 74 34 be 3d 3b 7b 3e
       -0.32692593 0.44384566 -0.1762257 0.24534316
000020 94 23 c3 be 0c c4 ac be b8 fe 48 3f 1f 53 7c be
       -0.3811308 -0.33743322 0.7851367 -0.24641083
000030 1f b3 2d 3e f7 b1 f6 be 70 c0 4b 3e 14 9e 33 3e
       0.1696286 -0.4818265 0.19897628 0.17540771
000040 57 01 ec 3e 1b 07 70 be 60 da b0 bd 81 4e 32 bd
       0.46094772 -0.2344021 -0.08635402 -0.0435319
000050 59 3b 84 3e bd 97 14 3f f5 3b cc 3e 24 ce b6 3e
       0.2582653 0.58044034 0.39889494 0.35704148
000060 97 a9 f7 3e 07 28 1e 3f 4d e2 26 3f 34 82 d1 be
       0.48371574 0.61779827 0.6518906 -0.4091965
000070 db c2 f0 3e 20 6a f7 be 2f 8f c8 be da 26 6f be
       0.47023663 -0.48323154 -0.3917174 -0.23354664
000080 7f 26 9e bd 9a a4 da 3e 12 01 26 be 39 ce b8 3e
       -0.07722186 0.42703706 -0.16211346 0.36094835
000090 51 a8 a1 3e 1c a2 a6 be d0 41 50 3e 9b e1 46 bf
       0.31573728 -0.32545555 0.20337605 -0.77687997
0000a0 76 d6 23 3e c0 37 d1 be c0 00 02 bf d7 f9 38 3f
       0.15999779 -0.40862846 -0.50782394 0.72256225
0000b0 06 91 00 3f 98 9f 64 be bd 3e 40 3f 37 d3 e1 3e
       0.5022129 -0.22326505 0.7509573 0.44106457
0000c0 f4 e7 0a be f5 1b 2d be 26 c0 97 3e 94 90 b0 bd
       -0.13565046 -0.16905196 0.29638785 -0.08621326
0000d0 04 d4 8b be 9d 34 78 be 20 24 cf be 7b ab cc be
       -0.27310193 -0.2423882 -0.4045725 -0.3997458
0000e0 78 bc c6 3e ed 47 00 3f 0a 34 43 3e f7 84 0f 3e
       0.38815665 0.5010975 0.1906282 0.14015566
0000f0 46 35 88 be 61 7b 1f 3e 18 4e 01 3f b8 3d 56 bd
       -0.26603144 0.15574409 0.50509787 -0.052304953
000100 0b a4 ce bc a3 ee 07 3f c3 0e f1 be 68 6a 88 be
       -0.025224706 0.53098506 -0.47081575 -0.26643682
000110 18 75 a8 be 71 c1 1f be 13 09 86 3e 58 97 93 be
       -0.32901835 -0.15601136 0.26178798 -0.28826404
000120 4b c3 63 bd 54 51 da 3e 0c df 03 bf d7 41 50 3e
       -0.055606168 0.42640173 -0.5151222 0.20337616
000130 33 37 f8 3e 96 f5 fd be 9e 4b c1 3e a1 7b d5 3d
       0.48479614 -0.4960143 0.37753004 0.10423971
000140 ae f9 b0 be f8 91 c8 be e1 d7 c9 bc 30 44 b5 be
       -0.3456549 -0.39173865 -0.024639072 -0.35403585
000150 c4 11 21 bf 86 7f 41 be ca 81 f0 be 67 61 c3 3e
       -0.62917733 -0.18896303 -0.4697402 0.3816025
000160 b3 09 9b bd e2 04 45 3f 68 e8 55 3e a1 2b ce 3e
       -0.07570209 0.76960576 0.20889437 0.4026766
000170 45 6d 1f 3f a8 e5 e7 be 1f c9 b4 be ab 37 a3 bd
       0.6227611 -0.452924 -0.35309693 -0.07969602
000180 ca 41 7b be e4 3e a9 3e b7 9b 35 3f 09 3a 58 3e
       -0.24536815 0.33055794 0.70940727 0.21115889
000190 98 63 d3 3e da 63 ed be c1 c9 47 be ad ff 0f 3d
       0.41286922 -0.46365243 -0.19510557 0.03515594
0001a0 3b 29 6a 3f a8 e7 8b 3d 61 10 46 3f ac aa ee 3e
       0.9146916 0.06831294 0.7736874 0.46614587
0001b0 59 31 26 3e 47 14 b9 3d 3c 61 f7 be 1f f5 8b be
       0.16229762 0.09037071 -0.4831637 -0.2733545
0001c0 a8 57 f9 bd f5 e0 9c be b9 45 99 3e 05 01 1d be
       -0.12174922 -0.3064038 0.29936007 -0.1533242
0001d0 07 37 f2 3e 56 8d 08 be ec 21 ff be 43 99 0b 3f
       0.47307608 -0.13335165 -0.49830568 0.54530734
0001e0 bb 0b 2d 3f bc a0 1a 3e db f4 78 be b9 7a e2 3e
       0.67596024 0.15100378 -0.24312155 0.44234255
0001f0 0e 46 3f 3f 38 2a ee bd 6a 82 6e be 30 fd 2b 3e
       0.7471627 -0.11629146 -0.23291937 0.16795802

weight f4 [128, 128]
000000 ec 48 e6 bf ac 0a 84 bd 6b 91 19 3e ce 10 0a 3d
       -1.7991004 -0.06447348 0.14996879 0.033707432
000010 68 72 49 bd d9 97 00 3e 3b c2 c9 bf 9e 88 87 3c
       -0.049181372 0.12557925 -1.57624 0.016544636
000020 b1 49 10 bd 2e 66 0a 3d b1 d9 94 3b 8a 30 c8 3d
       -0.035226528 0.033788852 0.0045425524 0.09774883
000030 f4 36 6d 3e 4d f5 50 3d 3c 27 87 bf 28 f0 54 3e
       0.23165494 0.051015187 -1.0558848 0.20794737
000040 09 08 ee 3d e9 27 20 3d 4b 5b d0 3d 5e 9f 83 3c
       0.11622626 0.03910056 0.10173663 0.016067203
000050 e0 d4 ab 3d a5 97 00 3f 1d a7 ac 3e 11 d3 95 3e
       0.08390212 0.5023139 0.33721247 0.29262593
000060 80 67 67 3d 1a d1 d0 3d bb db e8 3d 18 a9 52 3d
       0.05649519 0.10196133 0.11370035 0.05143079
000070 24 48 ae 3d c9 eb 99 3c ff 6e 57 bd 08 fb 67 bd
       0.085098535 0.018789189 -0.05259609 -0.056635886
000080 cf c2 7a bc b8 a7 c2 3e f0 9f 7f bb 4a 8c 33 3e
       -0.015305235 0.38018584 -0.0039005242 0.17533985
000090 be 4a 27 bf b6 98 30 bd f9 09 3a 3e 02 9e 19 be
       -0.6534842 -0.043114386 0.18167867 -0.15001681
0000a0 19 ee 1f 3e 6f c1 32 3c ee f1 8c 3c 08 2a c4 3d
       0.15618171 0.010910376 0.017205205 0.09578329
0000b0 f1 b4 03 3f 7a cf 61 bd ed 73 68 bc 7f 92 2a 3e
       0.5144797 -0.055129506 -0.014187795 0.16657446
0000c0 ea b1 87 bb 50 9a fd 3c c3 52 28 3e f2 49 22 bc
       -0.004141082 0.030957371 0.16437821 -0.009905325
0000d0 9c 04 09 3c 34 f8 08 3d cf 16 2f 3d bc 2c e8 bc
       0.008362915 0.03343983 0.04274636 -0.028341644
0000e0 29 2a 4f 3e 1b dd 89 3d a1 ba 02 3e 64 05 b4 3e
       0.20230927 0.06731626 0.12766506 0.35160363
0000f0 52 a1 9b bc 08 70 52 3e db 17 9d bf e6 2a 19 c0
       -0.018997822 0.20550549 -1.2272905 -2.3932433
000100 d7 3f b4 3c e5 66 85 3d bd 74 50 bc 44 1d d2 3c
       0.022003097 0.06513766 -0.012723145 0.02564872
000110 2f 40 5e 3d 64 53 25 bd aa a9 00 3e 6e d3 c9 bc
       0.05426043 -0.04036273 0.12564722 -0.02463695
000120 99 0a d1 3d 28 66 07 3f 29 72 15 3d 9a c9 78 bc
       0.102070995 0.52890253 0.036485825 -0.015184784
000130 d8 ff 8c 3d ff bf b9 bc a6 fe cc 3d f6 d4 08 bd
       0.06884736 -0.022674559 0.10009508 -0.03340622
000140 b1 12 9d 3b 0f b9 5f 3c fc 57 6a bf a4 7e a9 bd
       0.004793488 0.013654961 -0.91540504 -0.08276108
000150 cf a2 b1 bc 35 40 98 bc 02 02 df 3c 6b 91 ea 3e
       -0.021684078 -0.018585304 0.027222637 0.4581407
000160 26 0a 29 3d 63 4f db 3d 27 6f e9 bd 51 55 50 3e
       0.041269444 0.10708501 -0.11398154 0.20345046
000170 f9 97 79 3d 32 0c 98 bc b9 3b f7 bc d8 bf de bf
       0.060935948 -0.018560503 -0.030179845 -1.7402296
000180 47 60 32 bd db 11 7b bf 77 b4 18 3e 0f 53 14 3e
       -0.04354885 -0.9807412 0.14912592 0.1448481
000190 b4 89 bc 3c 99 8a 19 ba 66 eb d3 bc c4 cc 84 be
       0.02301488 -0.00058571395 -0.025869083 -0.25937474
0001a0 b3 cc be 3d 05 d8 8f 3d 41 e9 8d 3d 4d 0e 8f 3e
       0.09316387 0.07023624 0.06929255 0.27940598
0001b0 c5 47 77 3e d7 15 1c 3d fa 24 6f 3d fd 31 13 bd
       0.24148472 0.038106766 0.058384873 -0.035936344
0001c0 cc 89 8f 3c fb d7 dd bc 02 a9 41 bf 06 cb 58 bd
       0.017521761 -0.027080527 -0.7564851 -0.052927993
0001d0 69 2f eb 3d 3e 54 7e bd 80 d9 60 bd fa a5 10 3f
       0.11483652 -0.06209206 -0.054894924 0.5650326
0001e0 cd e1 d7 3d 4f 5c c2 3e d1 07 03 3d 0b 57 fa 3d
       0.10541115 0.3796105 0.031989876 0.122236334
0001f0 ec 66 28 3d 94 20 15 bd 60 87 64 3d 19 eb 2e 3e
       0.04111378 -0.036408022 0.055793166 0.1708187
000200 34 80 09 3c c4 54 c4 bc c0 84 08 bd 23 df fb 3c
       0.008392382 -0.0239662 -0.033329725 0.030746048
000210 36 5d 80 3d 8d f2 5a bc 9e e4 89 3c 20 a6 8c bb
       0.062677786 -0.013363493 0.016832646 -0.0042922646
000220 7f 1c 31 3d 9b fb 72 bd 66 80 a5 3c 51 60 18 3d
       0.043240067 -0.05932198 0.020202827 0.03720123
000230 6b f5 0c 3d 7e 95 29 3d 6f 05 66 bc e2 76 05 3d
       0.034413736 0.041402332 -0.014039381 0.03258408
000240 74 1e a0 3c f3 45 1e 3d 68 4e 82 3c fa 25 a8 3c
       0.019545771 0.038640928 0.015906528 0.020525921
000250 62 b6 ba 3c 40 1c 7f bd 5d 38 16 3b e6 39 91 3c
       0.022792045 -0.0622828 0.0022921779 0.017727803
000260 12 ce df bc 33 d4 5c 3c 10 12 40 3b b7 59 83 bd
       -0.027319942 0.013478327 0.002930764 -0.06413596
000270 f7 c1 79 bd 05 93 93 bc 86 42 c5 bc 0a 67 f8 3c
       -0.060975995 -0.01801444 -0.024079572 0.03032257
000280 3c 5d 44 bc b3 89 b9 3b 45 81 3c 3d c5 bf 1d bd
       -0.011985119 0.005662167 0.04602172 -0.038512964
000290 29 a6 1c 3d 38 d0 2d bd f2 a3 a3 bc 52 84 d6 bc
       0.0382444 -0.0424349 -0.019975636 -0.026186142
0002a0 93 8f 29 bd ac 76 81 bd c1 c2 d1 bc ba a3 6f bd
       -0.04139669 -0.06321463 -0.025605561 -0.05850575
0002b0 6f 14 ed bc 80 d7 cf bb 8c 71 28 3d a2 7a 0b bd
       -0.028940408 -0.0063428283 0.04112391 -0.0340525
0002c0 22 7d 40 3d d5 94 b9 3c 1b a3 e7 bc 0f 41 0c 3d
       0.046994336 0.022653976 -0.028276017 0.034241732
0002d0 c5 95 5e 3d f6 e6 4a bd 90 e9 fd 3c f8 d7 23 3c
       0.05434205 -0.049536668 0.03099516 0.010000221
0002e0 d2 46 2b 3b 7f 11 3b bd 25 1e 51 bc 05 c4 14 3d
       0.0026134741 -0.045670982 -0.012763535 0.03631975
0002f0 bc c8 25 bc ee 6d 4c 3b f4 7d 29 3c 0a 9c 4e 3d
       -0.01011866 0.0031193453 0.010344971 0.05044178
000300 97 b1 12 3d 10 0a b9 bc 1e 3b 23 bd 8e f8 0b bd
       0.035813894 -0.022587806 -0.0398513 -0.034172587
000310 ae 2f 64 3d 68 b9 d6 3c aa a8 2b bd 78 a1 22 bb
       0.055709533 0.026211455 -0.041908897 -0.002481548
000320 95 d6 76 3b 6e 1b c7 bc c3 d6 8e bb c0 82 06 bd
       0.0037664522 -0.024305072 -0.0043590977 -0.032839537
000330 93 a6 bc bc da 5d 0f bd 45 01 01 bd 79 48 2d 3c
       -0.023028648 -0.035001613 -0.03149535 0.010576361
000340 e4 8d 49 3d 66 bb 82 bd f0 25 7b 3d f6 25 67 3d
       0.049207583 -0.063834 0.061315477 0.056432687
000350 21 56 16 bd 2b 95 56 3d 97 06 32 3d 47 41 32 bd
       -0.036703233 0.05238835 0.043463316 -0.043519285
000360 46 f6 2b bd 76 d2 b3 bc 0c 1a d0 3b 4f ea 4c 3d
       -0.04198291 -0.021950942 0.0063507613 0.05002814
000370 82 a7 3d 3d c2 c9 6f 3d cc 74 8a 3c d3 1c 6c 3d
       0.046302326 0.05854202 0.016901396 0.057644676
000380 4a 40 24 bd 47 05 b5 bc 2a 86 64 bc 2c fa 57 bd
       -0.040100373 -0.022097243 -0.013948003 -0.052728817
000390 da 65 0a bd 06 37 0f 3d 86 a6 a3 bc a7 42 21 bc
       -0.03378854 0.034964584 -0.019976866 -0.009842551
0003a0 2a 5b 30 bc d2 17 76 3d 7c f3 83 3c 64 33 e4 bc
       -0.010763923 0.06008131 0.016107313 -0.027856536
0003b0 47 aa 02 bd dd 1b 0c bc 1f d3 68 bd e6 3d 46 bc
       -0.03190067 -0.008551565 -0.056841966 -0.012099719
0003c0 5a 5e 1b bd d7 f5 33 bd 67 0c b7 bc 04 f6 21 3d
       -0.037931778 -0.043935623 -0.022344781 0.03954126
0003d0 c3 10 ca 3c 98 ac 51 ba d4 3d 9e 3c e2 4a 90 3c
       0.024666196 -0.0007998436 0.019316591 0.017613832
0003e0 19 10 99 bc 54 93 e4 3c cb 0b 78 3c 78 6a 64 3a
       -0.018684434 0.027902283 0.01513953 0.0008713375
0003f0 e1 13 16 3c 3c f3 04 3d e2 3d 76 3d 0f ac 21 bd
       0.009160013 0.03245853 0.06011761 -0.03947073

bias f4 [128]
000000 df 61 d8 bc 1e 0e 61 bd a2 90 2f 3c b5 91 5e 3d
       -0.026413856 -0.054945104 0.0107156355 0.054338176
000010 59 15 20 bc 90 17 5f bd 7d c6 98 bd f8 2b b3 3d
       -0.009770715 -0.05446583 -0.07459734 0.08748621
000020 60 8d 07 bd b6 0e 99 3b 17 c9 10 3d 5a 80 1d bd
       -0.03309381 0.004670943 0.035348024 -0.038452484
000030 04 cf 46 3d 46 67 86 bc 88 ca 42 3d eb 18 2a 3d
       0.04853727 -0.016406666 0.04755643 0.04152767
000040 44 b1 8e 3c c3 c2 79 3d 73 e3 68 3d 24 0c b0 bc
       0.017418511 0.060976755 0.056857537 -0.021490164
000050 9e 34 24 3d a5 0c 18 bd 59 7c 5d 3d 20 3b 53 ba
       0.040089242 -0.037121434 0.054073665 -0.00080578215
000060 00 97 a3 3c 24 32 8d bd 08 9e d4 bc 14 20 48 3e
       0.019969463 -0.06894329 -0.025954261 0.19543487
000070 08 a3 2a 3f fe e5 46 3d 6e c1 01 be 32 aa 86 bd
       0.66655016 0.04855918 -0.12671444 -0.06575431
000080 ac f9 dc 3d 91 66 98 bc 4d 66 67 bd 31 14 cd 3d
       0.10789809 -0.018603595 -0.056494046 0.10013617
000090 a4 52 46 bd 04 8e 64 3d 14 7c 44 3c ba 6c d2 3d
       -0.048418656 0.0557995 0.011992473 0.10274644
0000a0 a0 b4 3a 3d e2 8d 8c bc 1a 39 3c 3d 22 67 23 bd
       0.045582414 -0.017157499 0.045952894 -0.039893277
0000b0 3f 90 32 3c 94 d3 52 3d 17 77 02 3d 97 db df bc
       0.010898649 0.051471308 0.031851854 -0.027326388
0000c0 ea 59 dd bd 0e 75 27 bd 5d ec 44 3e 95 cf 9b 3d
       -0.10808165 -0.040883116 0.1923079 0.076079525
0000d0 98 07 4e 3d ad 82 3b 3d f4 91 0c 3d 10 67 02 bd
       0.05030021 0.04577892 0.03431888 -0.03183657
0000e0 6e 82 3a bc 46 cf 74 3d 36 ba d9 bc 74 bf 30 bc
       -0.011383636 0.059767984 -0.02657805 -0.0107878335
0000f0 74 e6 64 3d c0 e2 c6 3e 67 02 81 3d 53 24 2f bd
       0.05588384 0.38844872 0.06299286 -0.04275925
000100 e8 5b 00 3d 3a 89 25 be 34 11 7d bd 2d 3a e0 3e
       0.03133765 -0.16165629 -0.061783984 0.43794385
000110 d7 8d 32 3d 3a 79 c5 bb ab af 0c be e2 73 ef bc
       0.0435923 -0.006026414 -0.13738887 -0.029230062
000120 0f c3 4c 3c 1d 55 a1 bc 54 bd 1f bd 4c 13 1e bd
       0.0124976775 -0.019693905 -0.038998917 -0.03859262
000130 fd 21 a6 3d 42 02 07 3c 4e f8 98 3d 1c a3 03 bc
       0.081119515 0.008240284 0.07469235 -0.008034494
000140 25 4b af 3d 43 ef 60 bd 3f 1a 8c bb f5 72 1b bd
       0.085592546 -0.054915678 -0.0042755897 -0.03795143
000150 27 79 02 be 1a fb da bb f3 9e 58 3e 14 49 16 bd
       -0.12741528 -0.0066827657 0.21154384 -0.036690786
000160 89 2f 6b bd 99 6f 22 be 3c b6 1c bd be 16 a4 3e
       -0.05741838 -0.15862884 -0.03825973 0.320486
000170 4a 32 03 bb ec 25 56 bd f8 40 52 3d 42 f3 06 bd
       -0.0020018988 -0.05228226 0.05133149 -0.032946832
000180 87 99 40 3e 00 c9 86 bd 09 e1 d0 bc 7d de c6 3e
       0.18808566 -0.065813065 -0.02549793 0.3884162
000190 0b 31 8d bd e9 66 ec bc 72 59 07 bc 10 18 65 bd
       -0.0689412 -0.028857665 -0.0082610715 -0.05593115
0001a0 b8 3d 17 3e 05 8f da 3d b8 48 8e b9 f1 34 57 3d
       0.14769638 0.1067181 -0.0002713853 0.052540723
0001b0 f4 c9 44 bb 9a 78 8c 3d aa 76 c8 bc ae f0 9d bc
       -0.00300276 0.068589404 -0.024470646 -0.019279804
0001c0 fe 7b a9 3c 33 43 4d bd b8 61 7a 3d 71 26 8f 3d
       0.020689007 -0.050112914 0.061128348 0.06989754
0001d0 05 99 1f bc 6f 8b 04 3e 91 05 cf 3d 82 f8 c3 3c
       -0.009741073 0.12943815 0.101084836 0.023922209
0001e0 bf 7f 22 3b 17 a7 35 bd 7a 13 64 3d 7e 10 2b bd
       0.002479538 -0.044348802 0.055682637 -0.041763775
0001f0 1a 69 e9 bd 62 53 64 3d 65 9f 6b 3d 9a e7 6d bb
       -0.11397 0.055743583 0.057525057 -0.0036301375

weight f4 [3, 128]
000000 2f af 70 be 98 ef c0 bc 0c 28 53 3d 0e 08 16 bf
       -0.23504327 -0.023551747 0.051551864 -0.5860604
000010 18 77 02 bf 7e a6 4e bf 5f e7 06 bf 1a 44 06 bf
       -0.5096297 -0.80722797 -0.52696794 -0.52447665
000020 a3 08 ab 3c 3e c3 00 bf ac 6e 1e 3d 42 7b cd be
       0.020878142 -0.50297916 0.038679764 -0.401331
000030 db fd 38 3d be 06 e4 bc 00 33 1d 3d 9f 6e 36 3d
       0.04516397 -0.027835246 0.038378716 0.04453909
000040 e3 60 5d bd 4d 21 e4 be e4 52 38 3f df 4c 3b 3c
       -0.054047477 -0.44556656 0.7200148 0.011431902
000050 17 78 29 bd 05 04 c0 bc 1e 7b 62 3d 6c 44 fd 3c
       -0.041374292 -0.023439417 0.055293195 0.030916415
000060 63 cc e5 3c cd a0 3a 3c 34 77 66 3d 39 90 3f 40
       0.02805156 0.011390877 0.056266025 2.9931777
000070 4d 8e 25 40 66 ba 1a bf 13 1b 03 3f a1 60 52 bf
       2.5868104 -0.6044067 0.51213187 -0.82178694
000080 d2 6a 12 bf 59 73 d3 bc 53 2a df 3b 0a b5 17 bf
       -0.57194245 -0.025811838 0.0068104654 -0.5926062
000090 2a 37 84 3d c6 06 e1 3c 40 7b d8 bf 36 e6 1a 3f
       0.06455834 0.02746905 -1.6912613 0.60507524
0000a0 21 8d 51 bd da 6d 0d bd 46 71 06 bd 94 66 3f 3c
       -0.05115998 -0.03452859 -0.03282287 0.011682171
0000b0 9e 76 8f bc aa 9f 4b bc 68 0e 5a bd 5f 67 83 be
       -0.017512616 -0.012428204 -0.053236395 -0.25664803
0000c0 d9 a3 0c 3f 0c b9 f5 bc 22 da 01 bf 88 fe 8a be
       0.5493751 -0.029995464 -0.5072347 -0.27147317
0000d0 33 a4 90 be e3 6c f4 bc c6 e0 fe be 8c ec fc be
       -0.28250274 -0.029837077 -0.49780864 -0.4939922
0000e0 f6 fb 63 3c 8e c2 25 3d 79 75 3b 40 97 fc 68 3f
       0.013915053 0.040468745 2.929045 0.9101042
0000f0 c8 64 50 3d 5a 67 b9 3f 29 da 96 be 1d 72 8d bc
       0.050877362 1.4484665 -0.29463318 -0.017266328
000100 12 eb 6d 3d 3f a4 91 be fe dd 77 3d 71 33 13 bf
       0.05808551 -0.28445622 0.060514443 -0.5750037
000110 c9 fb 49 bc cc 38 67 bd c0 cb 04 c0 dc 70 e3 3c
       -0.012328097 -0.05645065 -2.074936 0.027763776
000120 b8 b1 54 3d e5 c7 0b bf e3 da 48 3d 26 c9 7d bd
       0.0519273 -0.5460189 0.04903687 -0.06195941
000130 85 af ca be 7f b1 b6 bc f6 ab 73 be e4 33 2c bd
       -0.39587036 -0.022301434 -0.23796067 -0.042041674
000140 79 39 e2 be cb a4 4c bf 4c 91 54 3d ea 4c 78 bc
       -0.44184473 -0.79938954 0.05189638 -0.0151550565
000150 cc 03 8a 3f eb 6d 0e 3c 00 cd eb be e8 9b fa 3c
       1.0782409 0.008693199 -0.4605484 0.03059192
000160 d2 86 ee 3c b5 05 e7 be a7 7b 31 3d e1 b8 4d 40
       0.029117022 -0.45121542 0.043330815 3.214409
000170 18 cb 72 be d9 c3 76 3d 1c 93 20 bd 84 b2 46 bd
       -0.23710287 0.06024537 -0.039202794 -0.04851009
000180 af 62 1c bf 97 aa 1c 3d 46 59 22 3d 4f b5 a2 3f
       -0.6108808 0.038248625 0.03963592 1.2711581
000190 73 c4 72 bd ac 68 78 be 37 bf ce bc 17 ed 5f 3c
       -0.05926938 -0.24258679 -0.025237663 0.0136673665
0001a0 4f f1 12 40 55 7c 53 3f 10 0b 63 bd 68 d4 64 3c
       2.2959783 0.8261159 -0.055430472 0.013966657
0001b0 8c 66 55 bd 94 72 89 be c2 2a ff 3c f2 45 82 bf
       -0.05209975 -0.2684523 0.031148318 -1.0177596
0001c0 92 92 6e 3d 5a e6 5e bc cc 3e a2 bc f0 25 dc be
       0.05824525 -0.013604725 -0.019805335 -0.42997694
0001d0 e7 e8 3f bb d1 fe dc be 0c bf ce be cb 1f 71 bd
       -0.0029283108 -0.4316316 -0.40380132 -0.05886821
0001e0 3c 34 21 bf 3a ad 4e 3c 91 a9 16 3c 9d 74 b0 3c
       -0.6297033 0.012614543 0.009195701 0.02153998
0001f0 ab fb 52 bf 7a bb e1 bb e5 59 f3 be b1 cd d6 ba
       -0.82415265 -0.006888804 -0.47529522 -0.0016388205
000200 20 80 08 bf 86 8c 74 bd 68 c9 84 bc a7 73 11 bf
       -0.53320503 -0.059704326 -0.01620932 -0.56817096
000210 15 6c 02 bf e6 58 0b bf d9 74 08 bf 36 ce 1f bf
       -0.5094617 -0.54432523 -0.53303295 -0.6242403
000220 9a cd 0c 3d f1 10 14 bf 8d c3 94 39 64 de 53 bf
       0.034375764 -0.5783835 0.00028374456 -0.82761216
000230 0a 26 02 bd 1b c5 7a 3d 2b 11 5f 3b 4c a7 4b bd
       -0.031774558 0.06122313 0.0034037333 -0.049720094
000240 98 01 90 3d 57 f8 11 bf 0d ac 14 3f d0 8c 4f bd
       0.07031554 -0.5701956 0.5807503 -0.0506714
000250 5d 5d 4b bd 19 e9 55 bc 8a 2b 7e bd cf 32 dc 3c
       -0.049649585 -0.013056063 -0.06205324 0.026879696
000260 0f 68 31 3d 01 6d 15 3d 22 cf 39 bd 3b cd 22 40
       0.04331213 0.036480907 -0.045363553 2.5437763
000270 ee 02 1f 40 ff 27 1b bf 40 a5 1e 3f 47 bd 08 bf
       2.4845538 -0.60607904 0.619709 -0.53413814
000280 1f 34 30 bf 32 5f 1e 3d 34 ea 65 3c 8d 29 24 bf
       -0.6882953 0.038665004 0.014032889 -0.641259
000290 82 09 f5 3c 2d 16 dd bb 08 89 a4 bf 68 17 81 3e
       0.02991176 -0.0067470283 -1.2854319 0.2521317
0002a0 a3 bc 5a bd 73 45 ca 3b 4f 41 b8 ba df c4 32 3c
       -0.053402554 0.00617283 -0.0014057549 0.010911196
0002b0 b9 8a 51 3d 98 ca 2c 3d c8 54 8a 3c 73 a4 fe be
       0.051157687 0.042185396 0.01688613 -0.4973484
0002c0 bd 5c 1b 3f 6f 81 32 3d 0a 46 f5 be f7 9b 02 bf
       0.6068838 0.04358047 -0.47904998 -0.51019233
0002d0 af 3a bd be 97 78 5b bc ad fc 6d be 0c a3 c9 be
       -0.36958835 -0.01339545 -0.2324092 -0.39382207
0002e0 8d a1 98 bc 60 7e 29 3d 5d f5 38 40 dd 8d 62 3f
       -0.01863172 0.041380286 2.8899758 0.88497716
0002f0 41 98 18 3d b3 a5 1a 40 87 fa f4 be 9c b9 55 bd
       0.037254576 2.4163635 -0.47847387 -0.052178964
000300 84 d5 56 bb 53 5e ea be ae 13 62 bc c5 0d d3 be
       -0.0032781074 -0.4577509 -0.013798637 -0.41221443
000310 7c ff 46 3d ee a7 00 3c 17 28 22 c0 02 5d c7 bb
       0.048583493 0.007852538 -2.533697 -0.0060840854
000320 91 0d 82 bd e3 7c 0f bf 68 83 44 bd 26 13 ae bc
       -0.06350244 -0.56049937 -0.04797688 -0.021249365
000330 bf 74 f8 be 3a 43 c7 3c 74 c2 b5 be a8 f8 d9 3b
       -0.4852657 0.024324048 -0.35499918 0.0066519566
000340 92 bd ec 3c 18 11 3a bf 5c 80 ac bc 04 d4 08 3d
       0.028898988 -0.72682333 -0.0210573 0.03340532
000350 ce f4 2d 3f c2 0a 89 ba 5c d0 ca be 61 c9 1d bd
       0.6795167 -0.0010455477 -0.3961209 -0.038522128
000360 43 1c 1d bc a8 74 09 bf 30 4b 12 bc 16 c8 2e 40
       -0.009589258 -0.5369363 -0.008929059 2.7309623
000370 e8 f8 bc be 34 6d 55 bd dd d5 4b bd b3 ad 72 bd
       -0.3690865 -0.052106097 -0.049764503 -0.059247684
000380 24 e1 33 bf fc d6 2d 3c f8 c2 25 bd b3 85 88 3f
       -0.7026541 0.010610338 -0.04046914 1.0665802
000390 38 3f c1 3c a6 96 32 bf 9f 80 1b bc 80 c7 7f 3d
       0.023589715 -0.6976112 -0.009491115 0.062446117
0003a0 a7 9a 2f 40 53 5a 65 3f 74 28 bd 3c 31 55 4e 3d
       2.7438142 0.8959095 0.023090579 0.050374214
0003b0 75 a4 5e bc df 0e 62 be 92 93 07 bd 83 d3 38 bf
       -0.013589014 -0.22075985 -0.03309972 -0.7219774
0003c0 02 90 7e 3d 3c b1 75 3d 04 0e a0 3c 77 46 d1 be
       0.062149055 0.059983477 0.019537933 -0.40874073
0003d0 02 19 4c bd 9a 1d b8 be 93 dc 01 bf cd de 8d bb
       -0.049828537 -0.35960084 -0.50727195 -0.0043295384
0003e0 5b 8b 0a bf 7c ac 02 3d a4 38 9d bc ee b9 0d 3d
       -0.5411889 0.031902775 -0.019192047 0.034601144
0003f0 b6 49 1f bf bf 9a 77 3d 5d 0a 09 bf e8 0a 47 3d
       -0.6222185 0.06045031 -0.5353144 0.048594385

bias f4 [3]
000000 4c 35 2a 3b fb 32 f9 bc 6e fb 84 3d
       0.0025971709 -0.030419817 0.06493269
